Model
________________________________________________________________________________
Layer (type)                        Output Shape                    Param #     
================================================================================
embedding_3 (Embedding)             (None, 1000, 32)                320000      
________________________________________________________________________________
lstm_1 (LSTM)                       (None, 32)                      8320        
________________________________________________________________________________
dense_5 (Dense)                     (None, 512)                     16896       
________________________________________________________________________________
dense_6 (Dense)                     (None, 6)                       3078        
________________________________________________________________________________
activation_3 (Activation)           (None, 6)                       0           
================================================================================
Total params: 348,294
Trainable params: 348,294
Non-trainable params: 0
________________________________________________________________________________


